name: "VGG_CNN_M"
input: "data"
input_dim: 1
input_dim: 3
input_dim: 224
input_dim: 224
layer {
  bottom: "data"
  top: "conv1"
  name: "conv1"
  type: "Convolution"
  convolution_param {
    num_output: 96
    kernel_size: 7
    stride: 2
  }
}
layer {
  bottom: "conv1"
  top: "conv1"
  name: "relu1"
  type: "ReLU"
}
layer {
  bottom: "conv1"
  top: "norm1"
  name: "norm1"
  type: "LRN"
  lrn_param {
    local_size: 5
    alpha: 0.0005
    beta: 0.75
    k: 2
  }
}
layer {
  bottom: "norm1"
  top: "pool1"
  name: "pool1"
  type: "Pooling"
  pooling_param {
    pool: MAX
    kernel_size: 3
    stride: 2
  }
}
layer {
  bottom: "pool1"
  top: "conv2"
  name: "conv2"
  type: "Convolution"
  convolution_param {
    num_output: 256
    pad: 1
    kernel_size: 5
    stride: 2
  }
}
layer {
  bottom: "conv2"
  top: "conv2"
  name: "relu2"
  type: "ReLU"
}
layer {
  bottom: "conv2"
  top: "norm2"
  name: "norm2"
  type: "LRN"
  lrn_param {
    local_size: 5
    alpha: 0.0005
    beta: 0.75
    k: 2
  }
}
layer {
  bottom: "norm2"
  top: "pool2"
  name: "pool2"
  type: "Pooling"
  pooling_param {
    pool: MAX
    kernel_size: 3
    stride: 2
  }
}
layer {
  bottom: "pool2"
  top: "conv3"
  name: "conv3"
  type: "Convolution"
  convolution_param {
    num_output: 512
    pad: 1
    kernel_size: 3
  }
}
layer {
  bottom: "conv3"
  top: "conv3"
  name: "relu3"
  type: "ReLU"
}
layer {
  bottom: "conv3"
  top: "conv4"
  name: "conv4"
  type: "Convolution"
  convolution_param {
    num_output: 512
    pad: 1
    kernel_size: 3
  }
}
layer {
  bottom: "conv4"
  top: "conv4"
  name: "relu4"
  type: "ReLU"
}
layer {
  bottom: "conv4"
  top: "conv5"
  name: "conv5"
  type: "Convolution"
  convolution_param {
    num_output: 512
    pad: 1
    kernel_size: 3
  }
}
layer {
  bottom: "conv5"
  top: "conv5"
  name: "relu5"
  type: "ReLU"
}
layer {
  bottom: "conv5"
  top: "pool5"
  name: "pool5"
  type: "Pooling"
  pooling_param {
    pool: MAX
    kernel_size: 3
    stride: 2
  }
}
layer {
  bottom: "pool5"
  top: "score"
  name: "score"
  type: "InnerProduct"
  inner_product_param {
    num_output: 2
  }
}
layer {
  bottom: "score"
  top: "attr_prob"
  name: "attr_prob"
  type: "Sigmoid"
 }